archive/best_model_v1.pt (torch, 47526 bytes, 6 tensors)

fc1.weight f4 [128, 19]
0	0x3db137d4	0.086532265
1	0xbe07a47c	-0.1324634
2	0x3e934f74	0.28771555
3	0x3d74667f	0.05966806
4	0x3e053a0e	0.13010427
5	0xbe5e1f97	-0.21691738
6	0x3ba3821f	0.004989877
7	0x3e22f24c	0.15912741
8	0xbdf0e0b9	-0.117616124
9	0xbdd3dde1	-0.103450544
10	0x3deac5f9	0.114635415
11	0xbe4c8055	-0.1997083
12	0xbe835900	-0.2565384
13	0x3db9eb24	0.09078053
14	0xbc3cacd0	-0.011515811
15	0x3e2f69bd	0.1713018
16	0xbe719a26	-0.23593959
17	0x3d608771	0.054816667
18	0x3e9e824c	0.30958784
19	0x3e4d1982	0.20029262
20	0x3d9a6264	0.07538298
21	0x3e989545	0.29801384
22	0x3d9345b6	0.07191031
23	0xbe444bb2	-0.191695
24	0xbe0e6f15	-0.13909562
25	0x3e884fcd	0.26623383
26	0xbe48aa66	-0.19596252
27	0xbea95948	-0.3307593
28	0x3e1434f6	0.14473328
29	0x3e1e81c5	0.1547919
30	0xbe8699b3	-0.26289138
31	0xbd6adec5	-0.057341356
32	0x3e684104	0.22681051
33	0xbb6e1012	-0.0036325497
34	0xbeb2ab6a	-0.34896404
35	0xbe571151	-0.210027
36	0xb97c099c	-0.00024036173
37	0xbe73524c	-0.23761863
38	0xbec60ee6	-0.38683242
39	0xbcd96a94	-0.026540078
40	0xbe0924c8	-0.13392937
41	0xbeabf353	-0.3358408
42	0x3ddb01ff	0.1069374
43	0x3e530cd3	0.20610361
44	0xbe1e11ac	-0.15436429
45	0xbe103798	-0.14083707
46	0x3c3ff4dd	0.011716095
47	0x3dc679e1	0.09691215
48	0xbe90835d	-0.28225222
49	0x3eb7ffe8	0.35937428
50	0x3d8f3a42	0.06993534
51	0xbe165a9c	-0.14683002
52	0x3e5f57bc	0.21810812
53	0x3eb01f3a	0.34398824
54	0xbba8109e	-0.005128934
55	0xbe38015a	-0.17969266
56	0x3daa297c	0.08308694
57	0x3d845ff7	0.06463616
58	0xbe850245	-0.25978294
59	0xbe709df2	-0.23497751
60	0xbd4b7468	-0.04967156
61	0x3de72a5c	0.11287376
62	0x3e1b927d	0.151926
63	0x3d0d9501	0.03456593
64	0xbdb526d6	-0.08845298
65	0xbdc9a877	-0.09846585
66	0xbd6575f4	-0.056020692
67	0x3e222d7a	0.1583766
68	0xbea8ab44	-0.32943165
69	0x3e3960e8	0.18103373
70	0xbe0f06b0	-0.13967395
71	0xbe63ff7f	-0.22265433
72	0x3d068d23	0.032849442
73	0xbe3412fa	-0.17585364
74	0x3e1ca6b8	0.15297973
75	0x3cef5bf1	0.029218646
76	0x3d10beb8	0.035338134
77	0x3e0105c4	0.12599856
78	0x3e8a486c	0.27008379
79	0x3d968b59	0.07350797
80	0xbd5c2b0f	-0.053752
81	0x3e72f2f5	0.23725493
82	0xbdd4c4ea	-0.10389121
83	0xbe59e874	-0.2128008
84	0xbd946e0d	-0.07247553
85	0x3e411ae8	0.1885792
86	0x3e339c34	0.17540056
87	0xbdd1ee8a	-0.10250576
88	0xbe3e94f7	-0.18611513
89	0xbdae553b	-0.0851235
90	0xbd121ea8	-0.035673767
91	0xbb5fab7a	-0.0034129308
92	0xbe7d9207	-0.24762736
93	0xbea852f4	-0.32875788
94	0xbed6f0c7	-0.41980574
95	0x3e0dc8dd	0.13846155
96	0x3d76c528	0.060246617
97	0x3db2dc65	0.08733443
98	0xbe1f5370	-0.15559173
99	0xbdcb1bf5	-0.09917442
100	0x3e433096	0.19061503
101	0xbe1457b2	-0.14486578
102	0xbe877bc6	-0.2646162
103	0xbea4820f	-0.32130477
104	0xbe207a9d	-0.15671773
105	0x3e884481	0.26614764
106	0xbc707f81	-0.014678837
107	0xbed1b894	-0.40961134
108	0x3e2a429b	0.1662697
109	0xbe21c4b9	-0.157977
110	0x3e11673c	0.14199537
111	0xbded8697	-0.115979366
112	0xbdcbf0e1	-0.099580534
113	0xbe92803a	-0.28613454
114	0x3e0df5f6	0.13863358
115	0xbeecf274	-0.46278727
116	0xbe36f820	-0.1786809
117	0xbe80195f	-0.25019357
118	0x3e8ee5bc	0.27909648
119	0xbd886c2b	-0.066612564
120	0xbe9f5a46	-0.3112356
121	0x3da4f955	0.08055369
122	0x3c4188b1	0.011812375
123	0xbda3a97e	-0.079913124
124	0xbc14bba0	-0.009077936
125	0xbe20aaaa	-0.15690103
126	0x3dbaa224	0.09112957
127	0xbd3d121d	-0.046159852
128	0xbe745037	-0.23858725
129	0xbe2b0455	-0.16700871
130	0xbc86ca00	-0.016453743
131	0xbd25b9a1	-0.040460233
132	0x3d708652	0.058721848
133	0x3e979739	0.2960756
134	0xbda10a99	-0.078633495
135	0x3ea2f670	0.31828642
136	0xbdaec287	-0.08533197
137	0x3d8ca0aa	0.06866582
138	0xbde658b9	-0.11247391
139	0x3d27267f	0.040808197
140	0x3e39e388	0.18153203
141	0xbd14bf3b	-0.036315184
142	0x3e871fce	0.26391453
143	0xbe3fc84a	-0.18728748
144	0xbdadeccb	-0.0849243
145	0x3e09ba81	0.13450052
146	0xbd8c1752	-0.068403855
147	0xbcc6907f	-0.024238823
148	0xbcffb5c6	-0.031214606
149	0xbe9a3e2b	-0.30125555
150	0xbdc6161f	-0.09672188
151	0x3e0c615f	0.13709019
152	0x3e1ea12e	0.15491173
153	0x3e614d3e	0.22002122
154	0xbcad7ab0	-0.021176666
155	0xbe389ccf	-0.18028568
156	0xbea697d0	-0.325377
157	0xbec17b9c	-0.3778962
158	0xbdf3241c	-0.11872122
159	0x3e40664a	0.1878902
160	0x3d1ebcba	0.038754202
161	0x3d32b40d	0.04362874
162	0x3cb0edd0	0.021597773
163	0xbde1dfa5	-0.11028985
164	0xbd504663	-0.050848376
165	0x3e1690cd	0.14703675
166	0x3e2250b0	0.15851092
167	0x3e95f8da	0.2929142
168	0x3e0695d3	0.13143091
169	0xbe7a5721	-0.244473
170	0x3e479b3b	0.1949281
171	0xbdbefec1	-0.09325934
172	0x3cb60af4	0.02222202
173	0x3e5254e1	0.20540191
174	0x3c86fcbe	0.016477939
175	0xba5fd1e7	-0.0008538053
176	0xbe0719bf	-0.13193415
177	0xbe65a776	-0.22427163
178	0xbe90ac5b	-0.28256497
179	0x3d05d5b3	0.032674503
180	0x3e572c0d	0.21012898
181	0x3ca45ce4	0.020063825
182	0xbd17eb44	-0.0370896
183	0x3e043668	0.1291138
184	0x3e7355cb	0.23763196
185	0x3affeda0	0.0019525774
186	0xbe617908	-0.22018826
187	0xbdec7148	-0.11545044
188	0xbdf51e0b	-0.11968621
189	0x3d27a17d	0.04092549
190	0xbe9fe2a2	-0.31227595
191	0x3e16a81d	0.14712568
192	0xbea70b5e	-0.3262586
193	0xbe48149c	-0.19539112
194	0x3d25a466	0.040439986
195	0xbeecabc8	-0.4622481
196	0xbcb14771	-0.021640511
197	0xbe2e805c	-0.17041153
198	0x3d3756de	0.044760577
199	0x3dc808a0	0.0976727
200	0xbe4a6624	-0.19765526
201	0x3d24e504	0.04025747
202	0xbe10bf7a	-0.14135543
203	0x3c3747c3	0.011186543
204	0x3da84848	0.082169116
205	0x3dfe3bb9	0.12413735
206	0xbbc54f50	-0.0060214177
207	0xbddd1635	-0.10795251
208	0xbeb6b9cf	-0.35688636
209	0xbeb4d811	-0.35321096
210	0x3dba27eb	0.09089645
211	0xbe26631a	-0.16248742
212	0xbd970b6b	-0.07375225
213	0x3dfdfc06	0.12401585
214	0xbc0dfc5b	-0.008666123
215	0xbe3ff659	-0.18746318
216	0x3c7b2b51	0.015330152
217	0xbe1ef201	-0.15522005
218	0x3eb048a5	0.34430423
219	0xbe547d6e	-0.20750973
220	0x3dbfe42d	0.09369693
221	0x3cefbcc0	0.029264808
222	0xbe0444fd	-0.12916942
223	0xbc98066b	-0.018557748
224	0x3e520181	0.20508386
225	0x3e10907e	0.1411762
226	0xbd615eb6	-0.055021964
227	0x3e57f322	0.21088842
228	0x3e15d815	0.1463321
229	0x3da9bb22	0.08287646
230	0xbca30c02	-0.019903187
231	0x3cf948f7	0.0304303
232	0xbc88edc5	-0.01671494
233	0xbe6f46e0	-0.2336688
234	0x3caea892	0.021320615
235	0xbe724400	-0.23658752
236	0x3da2a7c0	0.07942152
237	0xbcee3550	-0.029078156
238	0xbdf679b2	-0.1203493
239	0xbd836b52	-0.06416954
240	0x3db32643	0.08747532
241	0x3ebcad21	0.36850837
242	0x3e029632	0.12752607
243	0xbe6e9512	-0.23299053
244	0xbdb71dc2	-0.08941223
245	0xbe797a8b	-0.24363153
246	0xbefe62f4	-0.4968487
247	0xbe9e7673	-0.30949745
248	0x3e6c6f9f	0.23089455
249	0x3dd1e53a	0.102487996
250	0xbd8a59bd	-0.067553975
251	0xbcdbcec5	-0.026831994
252	0xbe927984	-0.28608334
253	0xbdeef9a6	-0.116687104
254	0xbd904737	-0.07044833
255	0x3e78cff3	0.24298076

fc1.bias f4 [128]
0	0xbdc4ab46	-0.0960298
1	0x3dbbd256	0.09170978
2	0xbdea384b	-0.11436518
3	0x3e8d546b	0.27603468
4	0x3dc43d31	0.09581984
5	0xbdd6247d	-0.10456178
6	0x3dd4ce8c	0.10390958
7	0x3e631388	0.2217542
8	0x3d949634	0.072552115
9	0xbda9f4a7	-0.08298617
10	0xbe6681af	-0.22510408
11	0xbc7322c9	-0.014839836
12	0x3e3cc575	0.18434699
13	0x3e64958f	0.22322677
14	0x3e8a23aa	0.26980335
15	0xbdd1c544	-0.102427036
16	0x3df1fcf4	0.11815825
17	0x3e5770e5	0.2103916
18	0xbd2d7678	-0.04234931
19	0xbd611250	-0.054949105
20	0x3da30ea9	0.079617806
21	0xbd37533f	-0.044757124
22	0x3eb7134e	0.35756916
23	0x3e25dd14	0.16197616
24	0x3c870a70	0.01648447
25	0x3ded719c	0.11593935
26	0x3d9262eb	0.07147773
27	0xbcdbe7dc	-0.026843958
28	0x3e8a1912	0.26972252
29	0x3e152066	0.1456314
30	0x3e4e706c	0.20160073
31	0x3deb956b	0.115031086
32	0xbabe25c3	-0.0014507103
33	0xbdce0ab1	-0.10060633
34	0x3e7ba3ad	0.24574156
35	0xbe2d2469	-0.1690842
36	0x3e83894e	0.25690693
37	0xbe96e813	-0.29473934
38	0x3e5bd478	0.21467769
39	0xbe622b0b	-0.22086732
40	0x3e1ed40f	0.15510581
41	0x3ce062e8	0.027390912
42	0x3db70eae	0.08938347
43	0x3eaba606	0.33525103
44	0xbd367ed5	-0.04455455
45	0xbdeaea6f	-0.11470496
46	0xbcc6e969	-0.02428122
47	0xbe03034d	-0.12794228
48	0x3e7e5747	0.24837981
49	0x3c44fbd8	0.012022935
50	0x3e2faa4e	0.1715481
51	0x3c15d7b0	0.009145662
52	0xbd7a30cd	-0.061081696
53	0x3e318b1e	0.17338225
54	0x3dbec4ea	0.09314902
55	0x3e5ac263	0.21363215
56	0x3e276033	0.16345291
57	0x3e50af77	0.20379435
58	0xbcde409c	-0.027130418
59	0xbe2b10a6	-0.1670557
60	0x3e6340cc	0.22192687
61	0xbe086dd8	-0.13323152
62	0x3e35f366	0.1776863
63	0x3e9c9bd5	0.3058764
64	0xbdf818a3	-0.12114074
65	0xbe325c9c	-0.1741814
66	0xbcb8b3bf	-0.022546647
67	0x3e707d24	0.23485237
68	0x3c10780c	0.008817684
69	0x3d54003b	0.051758032
70	0x3d35a142	0.04434324
71	0x3e903c83	0.28171167
72	0xbd1a0778	-0.03760478
73	0x3d94d280	0.07266712
74	0x3e9ab61d	0.30217066
75	0x3e5afcf1	0.21385552
76	0x3db84324	0.08997181
77	0x3db207b6	0.08692877
78	0x3ea11f21	0.31469062
79	0xbd311fbe	-0.043243162
80	0x3d71a32b	0.0589935
81	0x3daeaaf9	0.08528704
82	0xbe1a8ec0	-0.15093517
83	0x3c70285a	0.014658058
84	0x3ba39ad7	0.0049928236
85	0xbe526a3a	-0.20548335
86	0x3e30e2ce	0.17274019
87	0xbe14334f	-0.14472698
88	0xbe0c9aa7	-0.1373087
89	0x3e2c9f64	0.16857678
90	0x3e6174ae	0.22017166
91	0x3d8d0ca9	0.0688718
92	0x3eb05d8a	0.34446365
93	0x3e015a80	0.1263218
94	0x3e27e8c2	0.16397384
95	0x3dff2ef2	0.12460126
96	0x3d965cb2	0.07341899
97	0x3e39f475	0.18159659
98	0xbd781240	-0.06056428
99	0xbcad4358	-0.021150276
100	0x3dd04776	0.1016988
101	0xbdde45fe	-0.10853194
102	0x3d9adf5f	0.07562136
103	0xbd27f72f	-0.041007217
104	0xbe1a55cd	-0.15071793
105	0xbe598101	-0.21240617
106	0xbdf45c0b	-0.11931618
107	0x3e88a043	0.2668477
108	0xbe26ceb5	-0.1628979
109	0xbe440f9d	-0.19146581
110	0x3dbb1a2f	0.091358535
111	0xbd930183	-0.07178023
112	0x3e01f410	0.12690759
113	0xbdd3cae4	-0.10341433
114	0xbdd87057	-0.10568302
115	0xbd89b425	-0.06723813
116	0x3d072f77	0.03300425
117	0x3e077846	0.13229474
118	0xbde93eef	-0.11388957
119	0x3e9081be	0.28223985
120	0xbe39dd7a	-0.18150893
121	0xbe4bfa8b	-0.19919793
122	0x3e1cb951	0.15305068
123	0x3e4d0f6f	0.20025419
124	0x3e8611ca	0.26185447
125	0xbda0e3df	-0.07855963
126	0x3e7c8a5f	0.2466216
127	0x3e8040f8	0.25049567

fc2.weight f4 [64, 128]
0	0xbc6d644a	-0.014489243
1	0x3d8cc591	0.0687362
2	0x3e553bf2	0.20823649
3	0xbc3b3877	-0.0114270365
4	0x3c2c9e9a	0.01053586
5	0x3b6124eb	0.003435428
6	0x3b425716	0.0029653958
7	0xbc6be851	-0.01439865
8	0x3c856c92	0.016287122
9	0x3c4e8cfe	0.012606857
10	0x3e822bb8	0.2542398
11	0xbd50be24	-0.050962582
12	0x3c8b59c8	0.017010584
13	0xbd842709	-0.06452758
14	0xbdec089b	-0.11525079
15	0xbe15b58d	-0.14620037
16	0xbc2d2091	-0.0105668465
17	0xbd222e97	-0.039595213
18	0xbd5504d2	-0.05200655
19	0xbd35aefa	-0.044356324
20	0xbd6ad8d0	-0.057335675
21	0x3b5afbf0	0.0033414327
22	0xbd316c15	-0.043315966
23	0x3dfc2e4c	0.12313518
24	0x3e1051a0	0.14093637
25	0xbc786494	-0.015160698
26	0x3e143f41	0.14477254
27	0x3d2f46f4	0.042792276
28	0xbc5abe34	-0.013351012
29	0x3b086316	0.0020811013
30	0xbd138bb5	-0.036021907
31	0x3d2ca079	0.042145226
32	0xbca8b7e7	-0.020595504
33	0xbe11f5ef	-0.14253972
34	0xbdabf65d	-0.083965994
35	0x3cd6bddd	0.02621358
36	0x3d55107b	0.05201767
37	0x3ddb98aa	0.10722478
38	0x3d628770	0.055304945
39	0xbd0b5cb1	-0.034023944
40	0xbdea5367	-0.11441689
41	0xbd9765e9	-0.07392485
42	0xbdfe77a3	-0.12425163
43	0x3c3aa64e	0.011392189
44	0x3d520911	0.051278178
45	0x3d05aeb2	0.032637306
46	0x3d26fafe	0.04076671
47	0x3d0e4d40	0.03474164
48	0xbde2c531	-0.110727675
49	0xbb8e73cd	-0.0043473006
50	0x3cf86160	0.03031987
51	0x3e6653ff	0.2249298
52	0x3e0d1593	0.13777761
53	0x3da4f671	0.080548175
54	0x3bdcf8e5	0.0067435377
55	0x3d54570c	0.051840827
56	0xbc647a1a	-0.013945127
57	0xbe06d648	-0.1316768
58	0x3d601976	0.05471178
59	0x3dea3268	0.114353955
60	0x3d92b986	0.07164292
61	0x3bf75e98	0.0075491183
62	0xbc0f2816	-0.008737585
63	0xbd25705b	-0.040390354
64	0xbd044fa2	-0.032302506
65	0x3e528011	0.20556666
66	0x3d9b7ba0	0.07591939
67	0x3e11ddfa	0.14244834
68	0x3d982f5e	0.074309096
69	0x3c6b6fbd	0.014369902
70	0x3dd77613	0.10520568
71	0x3d909baa	0.070609406
72	0x3d39a9e9	0.045328055
73	0x3d22a6a5	0.039709706
74	0xbd1a67a9	-0.037696514
75	0xbd7b02b4	-0.061281875
76	0xbd8841eb	-0.06653198
77	0x3d6d6890	0.057961047
78	0xbdebbbcc	-0.11510429
79	0x3e2fa80f	0.17153953
80	0x3d156aaf	0.036478695
81	0x3de00c3d	0.10939834
82	0xbcae712e	-0.021294203
83	0xbe0a6844	-0.13516337
84	0x3d8ad118	0.06778163
85	0x3dc5db96	0.09661023
86	0x3d6fd9a9	0.058557186
87	0x3e0b159c	0.13582462
88	0x3da2f5a1	0.07957006
89	0xbd899040	-0.06716967
90	0xbcc18de4	-0.023627229
91	0x3d38d528	0.045125157
92	0xbcb5deb2	-0.022200916
93	0x3c9df0da	0.019279886
94	0x3d22ba96	0.039728723
95	0xbe0d4109	-0.1379434
96	0x3d6bb357	0.05754408
97	0x3d926ebc	0.07150027
98	0x3d280ee2	0.04102982
99	0x3e128e68	0.14312136
100	0x3dd926b9	0.10603089
101	0x3e6a7c08	0.22898877
102	0x3e1a578c	0.15072459
103	0x3dd6d107	0.104890876
104	0xbd9cf0c0	-0.07663107
105	0x3df5773a	0.11985631
106	0xbd8445a4	-0.064585954
107	0xbcd87de9	-0.026427226
108	0x3dfe607a	0.12420745
109	0x3dafb529	0.085794754
110	0xbb988979	-0.00465506
111	0xbe15bfa6	-0.1462389
112	0x3b5b6999	0.003347969
113	0xbd008866	-0.03138008
114	0x3e194906	0.14969262
115	0x3c16b977	0.009199492
116	0x3b10cf06	0.0022096052
117	0xbd824737	-0.063612394
118	0xbe0adadc	-0.1356005
119	0xbd594fd9	-0.053054664
120	0x3d18c5c9	0.037297998
121	0xbe1d8e31	-0.15386273
122	0x3cfb3e20	0.030669272
123	0xbdb16329	-0.086614914
124	0xbd11c6ac	-0.03558986
125	0xbd0111d1	-0.03151113
126	0xbe39f9f1	-0.18161751
127	0x3d024768	0.03180638
128	0xbdc9b1e1	-0.09848381
129	0xbe3c3aef	-0.18381856
130	0xbcde8952	-0.027165089
131	0x3ded26f4	0.11579695
132	0xbe286f00	-0.16448593
133	0xbe4ecbfc	-0.20195001
134	0x3e0897e9	0.13339199
135	0xbdde0a93	-0.108418606
136	0xbc3846e0	-0.011247367
137	0xbe10f0e1	-0.14154388
138	0xbd6fd8bb	-0.0585563
139	0x3c0041b9	0.0078281695
140	0xbe2c1c4a	-0.16807666
141	0x3d368b27	0.0445663
142	0x3da3cef3	0.07998457
143	0x3cdd8c6c	0.027044497
144	0xbe129e51	-0.14318205
145	0xbd9c6a3f	-0.07637452
146	0x3ce1162e	0.027476396
147	0xbe22f08c	-0.15912074
148	0xbe1a6d4e	-0.15080759
149	0xbd64b727	-0.05583873
150	0x3dacce8f	0.084378354
151	0x3dc49507	0.09598737
152	0x3c65e46b	0.01403151
153	0xbd5e5294	-0.05427797
154	0xbe01ae0d	-0.12664051
155	0x3e157fef	0.14599584
156	0x3d96e93a	0.07368703
157	0x3d810453	0.06299653
158	0x3d6ccd35	0.05781289
159	0xbca756af	-0.020427076
160	0xbd0439ea	-0.032281794
161	0x3ba136a6	0.0049198447
162	0xbdad1570	-0.084513545
163	0xbe89c60c	-0.2690891
164	0x3e2feea4	0.17180878
165	0xbdf289ce	-0.118426904
166	0xbd4922a1	-0.04910529
167	0xbcefee71	-0.029288502
168	0x3dc88202	0.09790422
169	0x3dd2fb9c	0.10301897
170	0x3daf2f79	0.085539766
171	0x3d4a7f75	0.04943796
172	0xbe54ab79	-0.20768537
173	0x3db66d5d	0.08907578
174	0xbe4ea0a6	-0.2017847
175	0xbd96261b	-0.07331487
176	0x3d800e2e	0.062527046
177	0x3ca68159	0.02032535
178	0xbaef4b5d	-0.0018256713
179	0xbdf91cd4	-0.12163702
180	0x3d81a923	0.063310884
181	0x3dcf5114	0.10122886
182	0x3e1bfb64	0.15232617
183	0xbe0b300f	-0.13592552
184	0x3d3384a2	0.04382766
185	0x3d938417	0.072029285
186	0xbe282e18	-0.16423833
187	0xbcf6ebc2	-0.030141715
188	0x3e4844b2	0.19557455
189	0x3c8ae569	0.016955094
190	0x3dffe0c6	0.12494044
191	0x3e198590	0.14992356
192	0xbe4a1565	-0.19734724
193	0xbe314112	-0.17309979
194	0xbde1b779	-0.11021323
195	0x3d9ac88a	0.07557781
196	0x3da2c103	0.0794697
197	0xbe49c4a0	-0.19703913
198	0xbd756dcf	-0.059919175
199	0x3cfc21c4	0.03077782
200	0x3d66777a	0.056266285
201	0xbcc5c21c	-0.02414041
202	0xbdba0ab4	-0.09084073
203	0xbd21ab0e	-0.03946977
204	0xbd3dec1d	-0.046367753
205	0x3c6ea5ed	0.014565927
206	0x3d9b342b	0.075783096
207	0x3c8a17bf	0.016857026
208	0x3e3a6911	0.18204142
209	0xbcc07b66	-0.023496341
210	0xbe02d3f6	-0.12776169
211	0x3d90a659	0.07062978
212	0x3a604b59	0.00085561496
213	0x3d7bd168	0.061479002
214	0xbc13ab23	-0.00901297
215	0xbe802cb6	-0.25034112
216	0x3d2dd972	0.0424437
217	0xb9bfb2a9	-0.0003656347
218	0x3d3caf84	0.046065822
219	0x3e11cbe5	0.14237936
220	0x3dba1770	0.090865016
221	0x3d9d8e8e	0.07693206
222	0x3d35a382	0.044345386
223	0x3d2f597f	0.04280996
224	0x3dca3dc4	0.09875062
225	0xbcfd16f0	-0.030894727
226	0x3e33c233	0.1755455
227	0x3e1487ba	0.145049
228	0x3db98f93	0.09060588
229	0x3d1882fb	0.037234288
230	0xbe64a856	-0.2232984
231	0xbd444e4b	-0.04792623
232	0xbd218f39	-0.03944323
233	0xbd73637f	-0.05942106
234	0xbd8d6efa	-0.06905933
235	0x3de524ca	0.111886576
236	0xbe52d4c0	-0.2058897
237	0xbe934d00	-0.28769684
238	0xbdf79a4d	-0.120899774
239	0xbd10de23	-0.035368096
240	0xbd6096c3	-0.054831278
241	0x3c895943	0.016766196
242	0xbe43ee3e	-0.19133851
243	0xbce4319e	-0.02785569
244	0xbd17ecd3	-0.037091088
245	0x3b3c4ccb	0.0028732296
246	0xbc36acf7	-0.0111496365
247	0x3dd59a9d	0.10429881
248	0x3c65f4d8	0.014035426
249	0x3dc6ad0f	0.09700977
250	0x3ce86d0d	0.028372312
251	0xbd41f585	-0.047353286
252	0x3ca817ed	0.020519221
253	0x3e1f0b03	0.15531544
254	0xbb93fab1	-0.0045159687
255	0xbd36cbbb	-0.044627886

fc2.bias f4 [64]
0	0xbdb51760	-0.08842349
1	0x3e3dda52	0.18540314
2	0x3d87f810	0.06639111
3	0xbbfcffbd	-0.007720916
4	0x3c8e22f0	0.017350644
5	0x3df6e2bd	0.12054966
6	0x3e0262a2	0.12732938
7	0x3d3414df	0.043965217
8	0x3d821138	0.063509405
9	0x3bc8711c	0.0061169993
10	0x3afe51c2	0.0019403028
11	0x3db1b870	0.08677757
12	0x3db296b2	0.08720149
13	0x3dac79f3	0.084216975
14	0x3cd55ca6	0.026045155
15	0xbcdb6932	-0.02678356
16	0xbc94bae4	-0.018155523
17	0x3d11241d	0.03543483
18	0x3d6da7e6	0.05802145
19	0xbd694b18	-0.05695638
20	0x3d8b01c3	0.067874454
21	0x3d3768a9	0.044777546
22	0xbe20dbad	-0.157088
23	0x3e0188c8	0.12649834
24	0x3d9b089a	0.0757
25	0x3d1c522f	0.038164314
26	0xbae590e5	-0.0017514495
27	0xbc3b21eb	-0.011421661
28	0xbd93cb3a	-0.07216497
29	0x3de6e477	0.11274045
30	0xbd127068	-0.03575173
31	0x3dcad2c3	0.09903481
32	0x3d0297d3	0.031883072
33	0x3c2d0864	0.0105610825
34	0x3e117702	0.14205554
35	0x3c6f66cd	0.014611912
36	0x3e027b80	0.12742424
37	0xbccf5489	-0.025308864
38	0x3bba7116	0.0056897504
39	0x3d78d68e	0.06075149
40	0x3d7e5c7e	0.062099926
41	0x3d7c92d0	0.06166345
42	0x3e03866e	0.1284425
43	0x3c7f9a2a	0.01560072
44	0x3caa5bed	0.020795787
45	0xbc9695d8	-0.018381998
46	0x3e023373	0.12714939
47	0x3dbd4d43	0.09243252
48	0x3e3d46f6	0.184841
49	0x39ac0992	0.00032813527
50	0xbdac6620	-0.08417916
51	0xbd332a27	-0.04374137
52	0x3e1a27bb	0.15054218
53	0x3db1396d	0.08653531
54	0xbcc9fd1d	-0.024656827
55	0x3e23752b	0.15962665
56	0x3bad2237	0.0052836197
57	0x3e1ae6a5	0.15127046
58	0x3da0511d	0.07827971
59	0x3d6cc2d3	0.057802986
60	0xbcf2a378	-0.029618964
61	0x3e3c87ce	0.1841118
62	0x3c778410	0.01510717
63	0x3e2c5f61	0.16833259

fc3.weight f4 [6, 64]
0	0xbeab825e	-0.334979
1	0x3e465274	0.19367391
2	0x3dd99965	0.10624961
3	0xbe12e43e	-0.1434488
4	0x3e6c4cc6	0.23076162
5	0x3e3b2cee	0.18278858
6	0xbea12c6b	-0.314792
7	0xbe2204bc	-0.15822119
8	0xbe8e9124	-0.27845109
9	0xbe776667	-0.24160157
10	0xbec88a49	-0.39168003
11	0xbba4dfb5	-0.005031551
12	0x3ea0832a	0.3135007
13	0xbe06f3a9	-0.13178886
14	0xbe34b2d1	-0.17646338
15	0xbe566d17	-0.20940052
16	0xbd219e6e	-0.03945773
17	0xbd4dbc48	-0.050228387
18	0xba2fd6d2	-0.0006707731
19	0xbead1086	-0.3380167
20	0xbe2b46c2	-0.1672621
21	0xbe8657f8	-0.2623899
22	0xbcf127a8	-0.029437855
23	0x3daa6c92	0.083214894
24	0x3e5de202	0.21668246
25	0xbea82f35	-0.32848516
26	0xbe9cbaa6	-0.3061115
27	0x3d96bc6c	0.07360157
28	0xbe67deeb	-0.2264363
29	0x3dfa6835	0.12226907
30	0xbd06f998	-0.032952875
31	0xbe803620	-0.25041294
32	0xbeb99d1a	-0.3625267
33	0xbea8621d	-0.32887354
34	0x3e4ace22	0.19805196
35	0x3dfeaa09	0.124347754
36	0x3e4bcc29	0.199021
37	0xbeadce1d	-0.33946314
38	0x3e192e3a	0.1495904
39	0xbe4b64d4	-0.19862682
40	0x3df12a8f	0.117756955
41	0x3d5adeae	0.05343502
42	0xbca1ab50	-0.019735008
43	0xbe7401ed	-0.2382886
44	0xbe7a529c	-0.24445575
45	0xbe9f1ada	-0.31075174
46	0xbce14956	-0.02750079
47	0x3e05503d	0.1301889
48	0x3df5a85f	0.11995005
49	0x3d9a0d63	0.075220846
50	0xbebe2094	-0.3713423
51	0xbe82ab5d	-0.25521365
52	0x3e5da7c5	0.2164603
53	0x3daacbab	0.08339628
54	0x3dc5db33	0.096609496
55	0x3e35c0ab	0.17749278
56	0xbeb3bb3a	-0.3510378
57	0x3e489a59	0.19590129
58	0x3e2e3740	0.17013264
59	0x3e376717	0.1791042
60	0xbe284c0e	-0.16435263
61	0x3e6dbb86	0.23216066
62	0xbd3a08f0	-0.04541868
63	0x3df85df0	0.12127292
64	0xba25d01d	-0.0006325262
65	0xbe87f2f0	-0.26552534
66	0x3e0c6264	0.13709408
67	0xbea1e7e8	-0.31622243
68	0x3e13d755	0.14437611
69	0x3e844998	0.25837398
70	0xbe825695	-0.25456682
71	0x3e04fdca	0.12987438
72	0xbdb6c237	-0.08923762
73	0xbd5273ab	-0.05137984
74	0x3e0dd280	0.1384983
75	0xbe1c46af	-0.15261339
76	0xbe386773	-0.18008213
77	0xbd5e12ae	-0.054217033
78	0x3e692e3e	0.22771546
79	0x3dbd8237	0.09253352
80	0xbea1cdd7	-0.31602356
81	0x3d368d1a	0.04456816
82	0xbe952812	-0.29132134
83	0xbbbacf46	-0.0057009785
84	0x3e68f76a	0.22750631
85	0x3e53a1cc	0.2066719
86	0xbe0dd8a6	-0.13852176
87	0xbefa26cf	-0.48857734
88	0x3e369900	0.17831802
89	0x3dd4f563	0.10398366
90	0x3de6d838	0.11271709
91	0x3dc331c4	0.095309764
92	0x3e8462bc	0.25856578
93	0xbe2b09da	-0.16702977
94	0xbed40d45	-0.41416374
95	0xbe42b696	-0.19014964
96	0x3c8acf2c	0.01694449
97	0x3df216fb	0.118207894
98	0x3e216678	0.15761745
99	0xbdc6483e	-0.09681748
100	0x3e1a1079	0.15045346
101	0x3c41c19f	0.011825948
102	0x3db52c5d	0.08846352
103	0x3db385aa	0.08765729
104	0x3e0ff725	0.14059122
105	0x3e09fe82	0.13475993
106	0x3e6751d8	0.22589815
107	0xbd1cceff	-0.038283344
108	0xbd8e84f4	-0.069589525
109	0xbe946795	-0.28985277
110	0x3e2fac35	0.17155536
111	0xbe2e5f0f	-0.1702845
112	0xbe0913f0	-0.13386512
113	0x3d6ea6d2	0.05826456
114	0x3db464d9	0.08808298
115	0x3d3a7402	0.04552079
116	0xbe4a2e05	-0.19744118
117	0xbf001d8f	-0.500451
118	0xbec391af	-0.38197085
119	0xbe746084	-0.23864943
120	0x3dfed380	0.12442684
121	0xbec3ad64	-0.38218224
122	0x3e52e4c7	0.20595084
123	0xbeb172c6	-0.34657878
124	0xbe89860e	-0.26860088
125	0xbe5bd8d9	-0.2146944
126	0x3e4316a5	0.19051607
127	0x3c22c38e	0.009934319
128	0xbe4c44e8	-0.1994816
129	0x3e8ebc45	0.27878013
130	0xbea5ea07	-0.3240511
131	0xbea3a3e0	-0.31960964
132	0xbeaa6a38	-0.33284163
133	0xbe267167	-0.16254197
134	0xbec88555	-0.39164224
135	0x3e796ffc	0.24359125
136	0xbe90c279	-0.2827337
137	0x3c5f9317	0.013645909
138	0xbeb92aae	-0.36165375
139	0xbe213eb7	-0.1574658
140	0xbe600295	-0.21875985
141	0xbe95f68c	-0.29289663
142	0xbdc6736c	-0.09689984
143	0xbe15d31b	-0.14631312
144	0x3e4493a6	0.19196948
145	0xbeac5005	-0.336548
146	0xbe1248b1	-0.14285542
147	0x3d77e36d	0.060519625
148	0x3cc825dd	0.024432117
149	0x3d583a81	0.05279017
150	0xbdbb9487	-0.09159189
151	0x3e237d7b	0.15965836
152	0xbdd54a0b	-0.10414513
153	0xbe17cf1e	-0.14825103
154	0xbe1cd04c	-0.15313834
155	0xbe5c1a3d	-0.21494384
156	0xbe4153e3	-0.18879656
157	0xbdc7c81c	-0.09754965
158	0x3e0f2bfd	0.13981624
159	0xbe71291d	-0.2355084
160	0xbec516b6	-0.3849389
161	0xbe85734d	-0.2606453
162	0xbdc6a9e2	-0.09700371
163	0xbe2e4389	-0.1701795
164	0xbdd45696	-0.103680775
165	0x3b781646	0.0037855073
166	0xbe7e1a52	-0.24814728
167	0x3e4ff044	0.20306498
168	0xbeafd71a	-0.34343797
169	0xbe96a6ea	-0.2942422
170	0xbe2fcfb7	-0.1716908
171	0x3e2e2563	0.1700645
172	0x3db28160	0.087160826
173	0x3e24ca07	0.16092692
174	0xbe47ffd5	-0.19531186
175	0x3df06b99	0.117392726
176	0x3de504dc	0.111825675
177	0xbe75c890	-0.2400229
178	0xbe408b2b	-0.18803088
179	0x3e70ff6d	0.23534937
180	0xbe4907db	-0.19631903
181	0x3e2d5f59	0.16930903
182	0x3e3ac6fe	0.18239972
183	0x3e4f6824	0.2025457
184	0x3dc914c7	0.09818416
185	0x3e1a0dc4	0.15044314
186	0xbea80f80	-0.32824326
187	0xbdf5f4c4	-0.12009576
188	0x3e57690a	0.21036163
189	0x3e3fbd84	0.18724638
190	0xbe631104	-0.2217446
191	0x3d873cc5	0.06603388
192	0x3ddcc96a	0.10780604
193	0xbe5dc14f	-0.21655773
194	0x3d889679	0.066693254
195	0x3dd3d69c	0.10343668
196	0xbe8cc274	-0.27492106
197	0xbe980ee2	-0.29698855
198	0x3e47508a	0.19464317
199	0xbd858d28	-0.06521064
200	0xbd0808db	-0.03321157
201	0x3e540dae	0.20708343
202	0x3e1738c2	0.14767745
203	0x3e2e3d6c	0.17015618
204	0xbcca7643	-0.024714595
205	0x3e1e74fe	0.15474316
206	0xbe7afc50	-0.24510312
207	0x3e4803df	0.19532727
208	0xbe0e6647	-0.13906203
209	0x3e17de5d	0.14830919
210	0xbde242af	-0.11047875
211	0x3def6f24	0.1169112
212	0xbd8a238b	-0.067450605
213	0x3d178b0b	0.036997836
214	0xbe6b0888	-0.22952473
215	0x3e0e2fa9	0.13885368
216	0x3bf5c5a4	0.0075003672
217	0xbda20752	-0.079115525
218	0xbe04b277	-0.12958704
219	0xbe268b6c	-0.16264123
220	0x3d8e07da	0.06935091
221	0x3e289a4f	0.16465114
222	0x3d424b46	0.047435068
223	0x3e4356f9	0.19076146
224	0xbc422913	-0.011850613
225	0x3e1b6a80	0.15177345
226	0xbcc30465	-0.023805806
227	0xbd6bbc32	-0.057552524
228	0x3cb9ba91	0.02267197
229	0xbe0c8a52	-0.1372464
230	0x3d162066	0.03665199
231	0x3df46020	0.11932397
232	0x3c8b948c	0.017038606
233	0xbe17c779	-0.14822187
234	0x3d07d978	0.03316638
235	0xbdb74033	-0.08947792
236	0x3e226f25	0.15862711
237	0x3e25c2c3	0.16187577
238	0x3da4bbe5	0.080436505
239	0xbe1e6f38	-0.15472114
240	0xbe4ca96b	-0.19986503
241	0x3c785a9a	0.01515832
242	0x3d1e3075	0.03862043
243	0x3e294a0a	0.1653215
244	0x3df24b5c	0.1183078
245	0x3b50ffb9	0.0031890704
246	0xbdad080d	-0.08448801
247	0xbd2a01c0	-0.041505575
248	0x3dd46373	0.10370531
249	0xbe3e534c	-0.18586463
250	0xbe7ad9ba	-0.24497119
251	0x3da700e6	0.08154468
252	0x3cf5b5d3	0.029993927
253	0xbdfd41a1	-0.12366033
254	0x3e144632	0.14479902
255	0xbe68b9be	-0.22727105

fc3.bias f4 [6]
0	0x3d1f0216	0.03882035
1	0xbe1d7063	-0.15374903
2	0x3cbccde5	0.023047397
3	0xbd482d72	-0.048871465
4	0xbe489bac	-0.19590634
5	0x3dbe93ad	0.09305511
