archive/best_fault_analysis_model.pt (torch, 48060 bytes, 6 tensors)

network.0.weight f4 [128, 19]
0	0x3db70133	0.089357756
1	0xbeb0a38a	-0.3449977
2	0xbe624083	-0.22094922
3	0xbd82a7bc	-0.06379649
4	0x3ccbec37	0.02489291
5	0x3e630858	0.22171152
6	0x3e9aa4a1	0.30203727
7	0xbd1d92a1	-0.038469914
8	0xbeb47516	-0.3524558
9	0xbcabe394	-0.020982541
10	0x3d9c5685	0.0763369
11	0x3d1134fd	0.035450924
12	0xbda77fa4	-0.081786424
13	0xbedf6cef	-0.43637797
14	0xbe25e5f1	-0.16200997
15	0x3e8a8a72	0.2705875
16	0x3db721f1	0.08942021
17	0xbe801776	-0.250179
18	0xbe890538	-0.26761794
19	0xbdbcf726	-0.09226827
20	0x3deab0c6	0.11459498
21	0xbd3ae107	-0.04562476
22	0xbd8aa1bd	-0.067691304
23	0xbea6dfc3	-0.32592592
24	0x3c65867d	0.014009115
25	0x3e3fd755	0.18734486
26	0x3e1ab1b0	0.15106845
27	0xbdbaff28	-0.091306984
28	0x3e8a1c62	0.2697478
29	0x3eaaae2c	0.33336008
30	0xbda99f32	-0.08282317
31	0x3e2be2be	0.16785714
32	0xbe38d9e3	-0.18051867
33	0xbe1d781f	-0.15377854
34	0x3e384817	0.1799625
35	0x3dc929ef	0.09822451
36	0x3e690aec	0.22758073
37	0x3d05415c	0.032533035
38	0x3eb57524	0.35440934
39	0xbeeba7bc	-0.4602641
40	0xbe262a62	-0.16227105
41	0xbe072146	-0.13196287
42	0x3da9f5da	0.082988456
43	0x3e65c7da	0.22439519
44	0xbec5c3ee	-0.38626045
45	0xbdea6daa	-0.11446698
46	0x3e51ce74	0.20488912
47	0x3de4732a	0.11154778
48	0xbe1a68a8	-0.15078986
49	0xbd947120	-0.072481394
50	0x3e4ef487	0.20210467
51	0xbe9a8933	-0.301828
52	0xbd3d688c	-0.04624228
53	0xbe4378d2	-0.19089058
54	0xbea5ebe3	-0.3240653
55	0x3e0f2465	0.13978727
56	0x3e9b06b5	0.30278555
57	0x3d05cfb2	0.032668777
58	0xbd89d91c	-0.067308635
59	0xbd593f0e	-0.05303865
60	0x3e2bff57	0.16796623
61	0x3e04c7b0	0.129668
62	0xbd066328	-0.032809407
63	0xbd913bb2	-0.07091464
64	0x3e1fd660	0.15609121
65	0xbd8535ae	-0.06504379
66	0x3da06abe	0.078328595
67	0x3c78f2df	0.015194624
68	0xbe3a75f0	-0.18209052
69	0x3e62ad33	0.22136383
70	0x3d6f38d0	0.05840379
71	0xbea58c92	-0.3233381
72	0x3c27de79	0.010245913
73	0xbec79da4	-0.38987458
74	0x3e468f6d	0.1939065
75	0x3d7e5db4	0.06210108
76	0xbe33f1b1	-0.17572667
77	0xbd5673ad	-0.05235641
78	0x3ec023ec	0.37527406
79	0x3e032a3f	0.12809084
80	0xbcdbf3f5	-0.026849726
81	0x3e021107	0.12701808
82	0x3d13b7ee	0.03606408
83	0xbe174d7f	-0.14775656
84	0x3da8eb36	0.08247988
85	0x3eafcc18	0.343354
86	0x3e7bf4eb	0.24605148
87	0x3e12a113	0.14319257
88	0x3e37657f	0.17909811
89	0x3e4b3627	0.19844876
90	0xbd70112c	-0.058610126
91	0x3e9df153	0.30848178
92	0x3c55dfd1	0.01305385
93	0xbd664060	-0.056213737
94	0x3db62a18	0.088947475
95	0xbe63a761	-0.22231819
96	0x3b19b614	0.0023454474
97	0x3dbf62a3	0.09344985
98	0x3d256e67	0.04038849
99	0xbdab1bfa	-0.083549455
100	0x3d86f875	0.06590358
101	0xbe1b221f	-0.15149735
102	0x3d6e26b8	0.058142394
103	0xbe014420	-0.12623644
104	0x3e0670aa	0.13128915
105	0x3e73b7b6	0.23800549
106	0x3d4ddd40	0.05025983
107	0xbedf5b99	-0.4362457
108	0xbdb910c1	-0.09036399
109	0xbdaab043	-0.083344005
110	0x3d8cf2e5	0.06882266
111	0xbdce8968	-0.10084802
112	0xbcda0ab8	-0.02661644
113	0xbf2520dc	-0.64503264
114	0xbe2d01ab	-0.16895168
115	0xbe457ab1	-0.19285084
116	0xbcebcf52	-0.028785381
117	0x3d97fce7	0.07421284
118	0x3bd3fa67	0.0064690593
119	0x3cc34181	0.023834946
120	0xbd774df0	-0.06037706
121	0xbe74cc67	-0.23906098
122	0xbe7bbe4f	-0.24584316
123	0x3e8b7375	0.27236524
124	0x3e42acc2	0.19011214
125	0x3ea4a963	0.32160482
126	0x3ce31fa7	0.027725054
127	0x3d1ec13e	0.03875851
128	0x3e60b84b	0.21945302
129	0x3c467896	0.012113711
130	0x3e351390	0.17683244
131	0xbe327ddd	-0.17430826
132	0x3de27c53	0.11058869
133	0x3e60e847	0.21963607
134	0xbe52be85	-0.2058049
135	0xbdcd873d	-0.1003556
136	0xbd47dc78	-0.04879424
137	0x3dccae41	0.09994174
138	0xbefa29e0	-0.48860073
139	0x3dff3944	0.124620944
140	0x3d6d877b	0.057990532
141	0xbe3734f9	-0.17891301
142	0xbd685396	-0.05672034
143	0x3dcbdc4a	0.09954126
144	0x3d67dc31	0.056606475
145	0x3cb93c34	0.022611715
146	0xbe9f91c5	-0.311659
147	0xbec1d01c	-0.37854087
148	0xbe70aafa	-0.23502722
149	0xbe475c48	-0.19468796
150	0x3ca06385	0.019578705
151	0x3e2f9280	0.17145729
152	0xbd02e8cb	-0.03196029
153	0xbd4ed76c	-0.05049841
154	0x3d41605c	0.047211036
155	0xbe23e281	-0.16004373
156	0xbeef57b8	-0.46746612
157	0xbe0f9e10	-0.1402514
158	0x3d8022e1	0.062566526
159	0xbdce80f2	-0.10083188
160	0xbe2663a0	-0.16248941
161	0x3e2b9210	0.16754937
162	0x3c53ee2b	0.012935202
163	0xbce36af5	-0.027760962
164	0x3c8e5a5f	0.017377077
165	0xbe4ba06b	-0.19885413
166	0x3e650b12	0.22367504
167	0x3a55ea20	0.00081601925
168	0xbe8d83b1	-0.27639535
169	0xbdf7d066	-0.12100296
170	0xbe2165c8	-0.15761483
171	0xbd26df83	-0.0407405
172	0xbc9d786b	-0.019222459
173	0x3e417f4e	0.18896219
174	0xbd401694	-0.046896532
175	0xbe83b761	-0.25725845
176	0x3e1e16d9	0.15438403
177	0x3e031abe	0.1280317
178	0xbe4a167e	-0.19735143
179	0xbdfb9f35	-0.12286226
180	0xbcab8d8c	-0.020941518
181	0x3e851dff	0.25999448
182	0x3e563650	0.20919156
183	0xbe99c599	-0.30033568
184	0x3e2c25e7	0.16811334
185	0xbd22201e	-0.03958141
186	0x3e892437	0.26785442
187	0xbde54f03	-0.11196711
188	0x3d8bd893	0.06828418
189	0xbf1ccfb0	-0.61254406
190	0xbdc0ac28	-0.09407836
191	0xbcc9069b	-0.024539283
192	0x3ed0a46a	0.40750438
193	0xbeb179f2	-0.3466335
194	0xbdc6818b	-0.09692677
195	0x3c837d38	0.01605092
196	0x3e8afec4	0.27147496
197	0x3e8fdfd6	0.2810046
198	0x3e15a0b4	0.14612085
199	0xbc322595	-0.010873218
200	0x3e8355ef	0.256515
201	0xbd984412	-0.074348584
202	0xbc3feaf9	-0.011713737
203	0xbe9bafe9	-0.30407646
204	0xbc217068	-0.00985346
205	0xbd1b4452	-0.037906952
206	0x3ded474d	0.11585865
207	0xbec32f24	-0.38121903
208	0x3e8a0fcb	0.26965174
209	0x3e4c1b9b	0.19932406
210	0x3e0f6086	0.14001665
211	0x3d9d3db4	0.076777846
212	0xbe726466	-0.23671111
213	0xbd9d5807	-0.076828055
214	0x3ecbcb6a	0.3980363
215	0x3ce02700	0.027362347
216	0xbdc5a3a9	-0.09650356
217	0x3d72f3bb	0.05931447
218	0xbe18074b	-0.14846532
219	0xbc94dea0	-0.018172562
220	0xbe812f05	-0.25231186
221	0x3e3f28a3	0.18667845
222	0xbe98dedd	-0.2985753
223	0xbcc361c5	-0.023850331
224	0xbec370fd	-0.3817214
225	0xba9ee31e	-0.001212213
226	0x3ea09dae	0.313703
227	0xbe321605	-0.17391212
228	0xbce0d3fa	-0.027444828
229	0x3d1e7ac4	0.038691297
230	0x3c811d7c	0.01576113
231	0xbc861dc0	-0.016371608
232	0x3d8b041a	0.06787892
233	0x3b14af06	0.002268733
234	0x3e0b12c5	0.13581379
235	0xbd4eb757	-0.050467815
236	0x3d03415b	0.03204475
237	0x3bcc647d	0.006237565
238	0xbe79a9f5	-0.2438124
239	0xbcdcaba3	-0.026937312
240	0x3e1a03ce	0.15040514
241	0x3e92102b	0.2852796
242	0xbe3e09f0	-0.18558478
243	0x3e0a1703	0.13485341
244	0xbe9d954d	-0.3077797
245	0x3ea303cd	0.31838837
246	0xbd39370f	-0.045218524
247	0xbe614646	-0.21999463
248	0x3d4e7169	0.050401125
249	0x3db764f4	0.08954802
250	0x3d0ff5fb	0.035146695
251	0xbc745cd7	-0.014914713
252	0xbe859732	-0.26091915
253	0xbd979925	-0.07402257
254	0xbe8f746e	-0.28018516
255	0x3e5c88a3	0.21536498

network.0.bias f4 [128]
0	0xbe0d9428	-0.13826048
1	0x3d14116a	0.03614942
2	0xbc02f2a9	-0.007992425
3	0x3e66c3f8	0.22535694
4	0x3e4f9622	0.20272115
5	0xbdc886c1	-0.09791327
6	0xbcca04cd	-0.024660492
7	0xbd86550a	-0.06559189
8	0x3dfb6d96	0.12276761
9	0xbd301928	-0.04299274
10	0xbd76fd2f	-0.06030005
11	0x3e5d8ea7	0.21636449
12	0x3ea2b54d	0.31778947
13	0x3cd92755	0.026508013
14	0x3c92caf3	0.01791904
15	0xbde74ae3	-0.112935804
16	0xbcbe494e	-0.023228314
17	0x3def1c51	0.11675323
18	0xbe17f07a	-0.14837828
19	0xbce92b13	-0.028462922
20	0x3dc78c1a	0.09743519
21	0xbda66058	-0.08123845
22	0x3db53502	0.08848001
23	0x3d2a428a	0.041567363
24	0x3d8416f8	0.064496934
25	0xbc35b71e	-0.011091022
26	0x3e8ec237	0.2788255
27	0x3cf4948d	0.02985599
28	0xbe25acc2	-0.16179183
29	0xbe450603	-0.19240575
30	0xbe621f7b	-0.22082321
31	0x3e7f31f1	0.24921395
32	0xbe760be3	-0.24027972
33	0xbe570021	-0.20996143
34	0x3e180f03	0.14849477
35	0x3e45af85	0.19305237
36	0xbbf00c2a	-0.007325669
37	0xbdebfe3c	-0.11523101
38	0x3e525424	0.2053991
39	0x3dde7e1a	0.10863896
40	0xbd8fd040	-0.070221424
41	0xbe279f68	-0.16369402
42	0xbe47ab46	-0.1949893
43	0x3e057e44	0.13036448
44	0x3e82cc6e	0.25546592
45	0x3e3ad783	0.18246274
46	0xbe1ea421	-0.15492298
47	0xbd633bab	-0.055476826
48	0x3dad78dd	0.084703185
49	0x3cdf7b81	0.027280571
50	0xbe3d2765	-0.18472059
51	0xbdecfb96	-0.11571424
52	0xbcca4f8f	-0.02469614
53	0xbd2ad030	-0.04170245
54	0x3dfd6e65	0.12374572
55	0xbe05e03d	-0.13073821
56	0x3def8e9c	0.116971225
57	0x3e719b5d	0.23594423
58	0x3d02d642	0.031942613
59	0x3d84511b	0.06460782
60	0x3e6c5065	0.23077543
61	0xbdcc433d	-0.09973762
62	0x3e6c9977	0.23105417
63	0x3eb0b6ae	0.34514374
64	0x3e5c0748	0.21487153
65	0x3c7910e2	0.015201779
66	0xbe139dd9	-0.14415683
67	0x3d9e11bc	0.07718226
68	0x3e85ddcc	0.2614578
69	0x3d0ec183	0.034852516
70	0xbd069203	-0.03285409
71	0x3d9c2150	0.07623541
72	0x3ee08c5d	0.4385709
73	0x3cf11b2c	0.029431902
74	0x3cd5c62a	0.026095469
75	0x3de525f5	0.1118888
76	0x3d6fbd1c	0.058529958
77	0x3e95981d	0.29217616
78	0xbd876fc5	-0.06613115
79	0xbe353802	-0.17697147
80	0x3e7ecd83	0.24883084
81	0xbdbc6945	-0.09199766
82	0x3e449bbc	0.19200033
83	0xbe1cda20	-0.15317583
84	0x3d872854	0.06599489
85	0xbe0dff25	-0.13866861
86	0xbe8d787c	-0.27630985
87	0x3d426025	0.04745497
88	0xbe237503	-0.15962605
89	0x3dc823e2	0.09772469
90	0xbdf14eff	-0.117826454
91	0xbe1e929d	-0.15485616
92	0x3e05822f	0.13037942
93	0x3d985d5a	0.074396804
94	0x3d89c2e5	0.06726626
95	0x3dab44c6	0.08362727
96	0x3e1c1d8f	0.1524565
97	0x3e0385ad	0.12843962
98	0xbe46cec5	-0.19414814
99	0x3de4d219	0.111728854
100	0x3df5811a	0.11987515
101	0x3e0d0ba6	0.13773975
102	0x3d2b85fd	0.041875828
103	0x3e2fa828	0.1715399
104	0x3db5e214	0.088810116
105	0x3e4b471d	0.19851346
106	0x3e0fc1df	0.140388
107	0x3e1b5bf3	0.15171795
108	0xbe5f2322	-0.21790746
109	0x3cc6e2d6	0.024278086
110	0xbd56217d	-0.05227803
111	0x3c9d04a2	0.019167248
112	0x3d6299e6	0.05532255
113	0xbe3c799f	-0.1840577
114	0x3e5863a2	0.21131757
115	0x3d2d1102	0.042252548
116	0xbd81badc	-0.06334469
117	0x3c2a8559	0.010407769
118	0xbdc4f8da	-0.09617777
119	0x3e06dfaf	0.13171266
120	0xbe57df4c	-0.21081275
121	0x3d98da6f	0.07463538
122	0x3e4ffd5e	0.20311496
123	0xbdc5a165	-0.09649924
124	0xbe022732	-0.12710264
125	0xbd21c82f	-0.03949755
126	0x3c49fd60	0.012328476
127	0xbb854f35	-0.00406828

network.3.weight f4 [64, 128]
0	0x3cf9e6f5	0.030505637
1	0xbda6b1ee	-0.08139406
2	0xbbbb0484	-0.0057073254
3	0x3c16b411	0.009198205
4	0xbceee3ac	-0.029161297
5	0xbc6f2b19	-0.014597678
6	0x3d037c01	0.03210068
7	0x3c849dbe	0.016188499
8	0x3dcd083c	0.10011336
9	0xbdf3a9a8	-0.11897594
10	0x3e840278	0.25783134
11	0x3db40d46	0.08791594
12	0xbcf14d0f	-0.02945569
13	0x3cc86f6f	0.024467198
14	0xbd3c42d2	-0.045962162
15	0x3e929cc9	0.28635243
16	0xbd5b3986	-0.053521655
17	0x3d184b13	0.03718097
18	0xbe53b551	-0.20674635
19	0x3db93520	0.09043336
20	0xbcb1e59e	-0.021715935
21	0x3d4c831b	0.04992972
22	0xbd40e6fa	-0.047095276
23	0xbd2a83a8	-0.041629463
24	0x3ce1786f	0.027523248
25	0xbdac6885	-0.08418373
26	0xbd009dda	-0.03140054
27	0x3d115bd4	0.035487965
28	0xbcba124c	-0.022713803
29	0xbdeaaf4a	-0.11459215
30	0x3d26daff	0.040736195
31	0x3c69e223	0.014275107
32	0xbde63777	-0.11241048
33	0xbd774543	-0.060368787
34	0x3d8d6d8b	0.06905659
35	0xbe625f28	-0.22106612
36	0xbd05a46d	-0.03262751
37	0xbd8a9d24	-0.067682534
38	0x3e132a7c	0.14371675
39	0x3d73f636	0.059560977
40	0xbe1444ce	-0.14479372
41	0x3cbbe967	0.022938443
42	0xbcb79d19	-0.022413777
43	0xbd53229d	-0.05154668
44	0xbda13437	-0.07871287
45	0xbcc7e20c	-0.02439978
46	0x3da404d3	0.08008733
47	0x3e28c9dc	0.16483253
48	0x3b893820	0.004187599
49	0xbd90beab	-0.07067617
50	0x3c8f186e	0.017467704
51	0x3e088850	0.13333249
52	0xbd3a4f63	-0.045485865
53	0x3d85e9c2	0.065387264
54	0x3d975067	0.073883824
55	0xbb027b38	-0.001990987
56	0x3e025722	0.12728551
57	0x3b90dc11	0.004420765
58	0x3d9b3051	0.07577575
59	0x3cd3820f	0.025818853
60	0x3e6a94cc	0.22908324
61	0xbdbee3ab	-0.09320768
62	0xbbd51c52	-0.00650362
63	0x3d918eea	0.07107337
64	0xbd4de88f	-0.050270613
65	0x3e095913	0.13412885
66	0xbdf88790	-0.121352315
67	0x3d907599	0.0705368
68	0xbd9c1a21	-0.07622171
69	0xbd62eeee	-0.055403642
70	0x3e144cf9	0.14482488
71	0x3dbe106a	0.092804745
72	0xbd29b285	-0.041430015
73	0xbdd73c5e	-0.10509561
74	0x3d75ca5b	0.060007434
75	0x3dc54fc6	0.09634356
76	0xbd609677	-0.054830994
77	0xbd64dd26	-0.055874966
78	0xbd903e0d	-0.07043085
79	0xbd4cb155	-0.049973805
80	0x3d5b106a	0.05348245
81	0xbe0fc840	-0.14041233
82	0xbd7df2e1	-0.061999205
83	0x3d97c2af	0.0741018
84	0x3de04265	0.10950164
85	0x3bd15824	0.006388681
86	0x3ddb15f3	0.10697546
87	0xbdc3ee7b	-0.09566971
88	0x3dcf8cef	0.10134303
89	0xbd7b28c9	-0.061318193
90	0x3dc308ad	0.09523139
91	0x3da5e5b4	0.08100453
92	0x3d5f0dff	0.054456707
93	0xbe04d07c	-0.12970155
94	0xbcfcb3a7	-0.030847384
95	0xbd91d0ef	-0.07119929
96	0xbd2028d8	-0.03910145
97	0x3d91e454	0.07123628
98	0xbdd52649	-0.10407693
99	0x3df881cc	0.12134132
100	0xbd149be8	-0.036281496
101	0x3dadda66	0.08488922
102	0x3ce9969a	0.028514195
103	0xbdb1087a	-0.08644195
104	0xbd116a9f	-0.035502072
105	0x3e1ce25f	0.15320729
106	0x3d953ae0	0.0728662
107	0xbd03f03b	-0.032211524
108	0x3bc3db04	0.0059770364
109	0x3d8e97cb	0.06962546
110	0x3d89872f	0.06715237
111	0x3de0ac70	0.1097039
112	0x3cd18930	0.025578111
113	0xbe3a48c6	-0.18191823
114	0xbd34e0ec	-0.044159815
115	0x3d11166f	0.035421785
116	0x3d8700c4	0.06591943
117	0x3c78b368	0.0151794925
118	0xbe1fe132	-0.15613249
119	0x3bee55fd	0.007273434
120	0xbe207194	-0.15668327
121	0x3e0408ce	0.12893984
122	0x3c916680	0.017749071
123	0xbd7a7efd	-0.06115626
124	0x3e07ca49	0.1326076
125	0x3dbbe24d	0.09174023
126	0x3d85dcb0	0.065362334
127	0xbe3d4fa1	-0.18487407
128	0xbdada587	-0.084788375
129	0xbdb28edf	-0.08718657
130	0x3ce946c7	0.028476132
131	0x3cd87a23	0.026425427
132	0xbe109272	-0.14118364
133	0xbe15b1dd	-0.1461863
134	0xbcd6d1a9	-0.02622302
135	0x3e000843	0.12503152
136	0xbdaf57b8	-0.08561653
137	0xbd848e5c	-0.064724654
138	0x3e2057f6	0.15658554
139	0xbd256f19	-0.040389154
140	0xbe02e0ea	-0.1278111
141	0x3d9c5fbc	0.076354474
142	0x3d3df888	0.046379596
143	0x3ba3e0d5	0.0050011673
144	0x3db9a57b	0.09064766
145	0xbd22e244	-0.039766565
146	0xbe018680	-0.12648964
147	0x3cb5ebe3	0.022207206
148	0xbd07903b	-0.033096533
149	0xbdaca02c	-0.08428988
150	0xbc379d8b	-0.011206995
151	0xbb5285a4	-0.0032123113
152	0x3d15811e	0.03650009
153	0xbd61ce65	-0.055128474
154	0x3e3400a5	0.17578371
155	0x3c93ace4	0.018026777
156	0xbcee37f1	-0.02907941
157	0xbca41d28	-0.020033434
158	0x3d535d97	0.051602926
159	0x3db7c99a	0.08973999
160	0xbdbf6a49	-0.09346444
161	0x3e6ce60f	0.23134635
162	0x3ded1ea6	0.11578111
163	0xbcb078a6	-0.021541905
164	0xbd15ed8a	-0.036603488
165	0x3db5400b	0.08850106
166	0x3d8728ef	0.06599604
167	0x3e0777d7	0.13229309
168	0x3c4ee00f	0.012626662
169	0x3d5c62d8	0.053805202
170	0x3c80f0f4	0.015739895
171	0x3d5f766b	0.05455629
172	0x3d7aee17	0.061262216
173	0x3d66d0e8	0.056351572
174	0xbd14c239	-0.036318038
175	0x3d81065a	0.063000396
176	0xbdb2725c	-0.087132186
177	0x3ce926fb	0.02846097
178	0xbd97656a	-0.0739239
179	0x3d455cb6	0.04818412
180	0xbc0544c4	-0.008134071
181	0xbc8812cf	-0.016610531
182	0xbe242b12	-0.16032055
183	0xbe22e708	-0.15908444
184	0x3cf8ab6f	0.030355183
185	0x3d9b4a9c	0.0758259
186	0x3aeb1e88	0.0017938176
187	0x3dcfcb1d	0.10146163
188	0x3d6ef0af	0.058335003
189	0x3d29f543	0.041493665
190	0x3c9bc75e	0.019015964
191	0x3dcb2077	0.099183016
192	0xbe232bf4	-0.15934736
193	0xbd102815	-0.035194475
194	0xbca5765d	-0.020198042
195	0x3d68f5cb	0.05687503
196	0x3e4f050a	0.20216766
197	0x3d9bbb44	0.076040775
198	0x3e0c97b1	0.1372974
199	0x3ccd2dba	0.025046218
200	0x3d444428	0.04791656
201	0xbd8d1254	-0.068882614
202	0xbd76dec1	-0.06027103
203	0x3dadaac8	0.084798396
204	0xbd4ba0b3	-0.0497138
205	0xbe336533	-0.17519073
206	0xbd9205dc	-0.07130024
207	0x3e2f27b5	0.17104991
208	0xbcdbd965	-0.02683706
209	0xbcd22d36	-0.025656324
210	0x3d8fb572	0.0701703
211	0x3e2e1793	0.1700118
212	0x3e400224	0.18750817
213	0x3d6aa436	0.05728551
214	0xbc65e949	-0.01403267
215	0xbd700fc1	-0.058608774
216	0xbdbb09c3	-0.09132721
217	0xbcb2fd84	-0.021849401
218	0xbdc25bfc	-0.09490201
219	0x3dbd3004	0.09237674
220	0x3cdd794a	0.027035374
221	0xbd95a542	-0.07306911
222	0xbdbb5359	-0.09146757
223	0x3d3fb6eb	0.046805304
224	0x3b2631b7	0.0025359222
225	0xbb7c11ec	-0.003846283
226	0x3dae645e	0.08515237
227	0x3a43ff97	0.00074767455
228	0xbdb33734	-0.087507635
229	0x3d8c8648	0.068615496
230	0x3c0cc014	0.008590717
231	0x3d143e8b	0.036192458
232	0xbdb40f5e	-0.087919936
233	0xbd04dbd9	-0.032436226
234	0x3e0aea0d	0.13565846
235	0xbc9579e0	-0.018246591
236	0x3d8e36d7	0.069440536
237	0x3e34b800	0.17648315
238	0x3e43c208	0.19116986
239	0x3e1318b0	0.14364886
240	0xbd822adf	-0.06355833
241	0x3d081100	0.033219337
242	0xbd43a24d	-0.047762204
243	0x3d94f9a9	0.072741814
244	0xbdb8f7db	-0.0903165
245	0xbd2be011	-0.041961733
246	0xbb8b2333	-0.0042461394
247	0x3b58126b	0.0032969962
248	0x3d851e03	0.06499865
249	0xbdcfc969	-0.10145838
250	0xbe0e7322	-0.13911107
251	0xb7cae7b0	-2.4188164e-05
252	0x3b2f4c03	0.0026748187
253	0x3b19b696	0.0023454777
254	0xbdcdc456	-0.10047214
255	0x3d0a63d9	0.03378663

network.3.bias f4 [64]
0	0x3e2d8862	0.16946557
1	0x3d85d9ca	0.065356806
2	0x3d15c5ff	0.036565777
3	0x3df08582	0.117442146
4	0x3dbaa8d3	0.09114232
5	0x3e278c80	0.1636219
6	0x3dab25ec	0.083568424
7	0xbd94c692	-0.07264437
8	0xbe3555c6	-0.17708501
9	0xbdc55ab6	-0.09636442
10	0x3d88ab7c	0.06673333
11	0x3e2ddac3	0.16977982
12	0x3dcf6bf4	0.10128012
13	0x3dc0070c	0.09376344
14	0x3ca7745b	0.020441225
15	0x3df2c216	0.11853425
16	0xbd399c70	-0.045315206
17	0xbdb356db	-0.08756801
18	0x3e2f9387	0.17146121
19	0xbd974da5	-0.073878564
20	0x3cefed05	0.029287824
21	0xbca559d8	-0.020184442
22	0x3e0a79b2	0.13522986
23	0xbd95c77e	-0.07313441
24	0x3e29d071	0.1658342
25	0x3da0d07a	0.07852264
26	0xbd2d53e4	-0.042316332
27	0x3e004cfb	0.12529366
28	0xbc818655	-0.015811125
29	0x3d356043	0.044281255
30	0x3d26f8b4	0.040764526
31	0x3c6feb8e	0.014643563
32	0xbd1ccb3f	-0.038279768
33	0xbd40a0a2	-0.04702819
34	0xbd14429c	-0.036196336
35	0xbdb4eaa8	-0.0883382
36	0x3deb5039	0.11489911
37	0x3d47afbf	0.04875159
38	0x3e37ffa1	0.17968608
39	0x3dd14c6b	0.10219654
40	0x3e4c2952	0.19937637
41	0x3ddbf922	0.10740878
42	0x3d86a911	0.065752156
43	0xbd79dbb4	-0.06100054
44	0xbcef1a08	-0.029187217
45	0x3e860910	0.2617879
46	0xbde89c3b	-0.113579236
47	0x3d178e45	0.037000913
48	0xbd830b8d	-0.063986875
49	0x3de37d60	0.11107898
50	0x3e410c48	0.18852341
51	0xbd8fec56	-0.070274994
52	0x3dc5bd5d	0.09655259
53	0xbdbdadf1	-0.09261692
54	0x3e8d784b	0.2763084
55	0xbd47be1a	-0.04876528
56	0x3e2154a5	0.15754946
57	0x3d241fd0	0.0400694
58	0xbce03624	-0.027369566
59	0x3d6feebe	0.05857729
60	0x3d40d099	0.047073934
61	0x3d00a95e	0.03141152
62	0x3e53a979	0.20670117
63	0x3dae4d9a	0.08510895

network.6.weight f4 [7, 64]
0	0x3e2aa7a2	0.1666551
1	0x3e1d6728	0.15371382
2	0x3ddc4c01	0.10756684
3	0x3dbbe544	0.09174588
4	0x3def1158	0.1167323
5	0xbe5b9357	-0.21442924
6	0x3db5e5e0	0.08881736
7	0xbe822714	-0.2542044
8	0xbe8eda93	-0.27901134
9	0xbec37b5b	-0.3818005
10	0xbe364a87	-0.17801867
11	0x3e57aa4c	0.21061057
12	0x3dca26d1	0.09870685
13	0x3dfee1a9	0.12445385
14	0xbf173259	-0.590612
15	0xbf0dee1b	-0.55441445
16	0x3d0ee96b	0.034890573
17	0xbe5d2f9e	-0.21600196
18	0x3e2208bb	0.15823643
19	0xbe9a4e74	-0.3013798
20	0xbea5873b	-0.32329735
21	0xbe9586b2	-0.29204327
22	0x3e13a225	0.14417322
23	0xbec1ceb4	-0.37853014
24	0x3e65f33c	0.22456068
25	0x3e7ac4b4	0.24489099
26	0xbecd33dd	-0.4007863
27	0x3e2ce521	0.1688428
28	0xbe5c05f8	-0.21486652
29	0x3e8dd61c	0.27702415
30	0xbe51c1dd	-0.20484109
31	0x3e5defb6	0.21673474
32	0xbf0e680c	-0.5562751
33	0x3e1e10f6	0.15436158
34	0xbd1f0f22	-0.03883279
35	0xbeb219af	-0.3478522
36	0x3dcc5b1b	0.099783145
37	0xbe2b6dd8	-0.16741121
38	0xbe9dc486	-0.30813998
39	0xbd742359	-0.059604023
40	0xbeacfd47	-0.33786985
41	0xbeb62955	-0.3557841
42	0xbe595ac5	-0.21226032
43	0x3d2085ee	0.039190225
44	0xbea13b89	-0.31490734
45	0x3e459f6d	0.19299097
46	0x3e2ee1b2	0.17078283
47	0xbd348faa	-0.04408232
48	0xbe9e293e	-0.3089084
49	0x3dd65b6a	0.104666546
50	0x3e34f96f	0.17673276
51	0xbec80f28	-0.39074063
52	0xbed181df	-0.40919396
53	0x3e821dc7	0.25413343
54	0x3dd5d791	0.10441507
55	0x3e11f621	0.14254047
56	0xbeaa76de	-0.33293813
57	0xbeaab5e2	-0.3334189
58	0xbe0307e2	-0.12795976
59	0xbbf6db0c	-0.0075334366
60	0x3d8062bb	0.06268831
61	0xbe5a0e59	-0.21294536
62	0x3e0a2a3a	0.1349267
63	0xbde52ca2	-0.11190154
64	0xbea10fc6	-0.31457347
65	0xbbf7218f	-0.0075418423
66	0x3df7600a	0.12078865
67	0x3d7a74f6	0.0611467
68	0xbe9af35c	-0.30263793
69	0x3e1ff5d3	0.15621118
70	0x3dad623e	0.08466004
71	0xbe5d574f	-0.21615337
72	0xbedcba3d	-0.4311084
73	0x3b01d76e	0.0019812244
74	0x3dd4c00b	0.10388192
75	0x3df41f13	0.119199894
76	0x3e262db1	0.16228367
77	0x3c47c4a3	0.012192878
78	0xbd80ef92	-0.062956944
79	0xbdfcde81	-0.12347127
80	0x3e00da60	0.12583303
81	0xbe4ac5e6	-0.19802055
82	0x3e3d81aa	0.18506494
83	0xbe84e4fd	-0.25955954
84	0xbed481af	-0.4150519
85	0xbe3a4664	-0.18190914
86	0x3e8e09af	0.27741763
87	0xbe377979	-0.17917432
88	0xbec5a2d1	-0.38600782
89	0xbe223df6	-0.15843949
90	0x3dffa3ff	0.12482452
91	0x3dd72be1	0.10506416
92	0xbe13d00f	-0.14434837
93	0x3de1dd30	0.11028516
94	0x3e5ca3a3	0.21546797
95	0xbdef26c3	-0.11677315
96	0xbe07bf45	-0.13256557
97	0xbda33a42	-0.07970096
98	0xbe2b9748	-0.16756928
99	0xbecb0320	-0.39650822
100	0x3dbc9769	0.09208567
101	0x3eadf359	0.33974722
102	0x3e26fbeb	0.16307037
103	0x3e84c5e5	0.25932232
104	0x3e9ce5fb	0.3064421
105	0x3e7d9a13	0.24765806
106	0x3dc538ea	0.09629996
107	0xbe99cbc0	-0.3003826
108	0xbef6fd04	-0.4823991
109	0xbecc346c	-0.39883745
110	0xbeefe89a	-0.46857148
111	0xbce74992	-0.028233323
112	0xbe35283a	-0.17691126
113	0xbecff3b2	-0.40615612
114	0xbebde7c8	-0.37090898
115	0x3dff6fa7	0.12472468
116	0x3e3aea05	0.18253334
117	0xbe593d0d	-0.21214695
118	0x3d251300	0.040301323
119	0xbef34f39	-0.4752138
120	0x3c33cc68	0.010974027
121	0x3e9b4bb8	0.30331206
122	0xbed3abfd	-0.41342154
123	0xbe67f385	-0.22651489
124	0x3e0ecad5	0.13944562
125	0xbd9c2d75	-0.07625858
126	0x3e2f6a51	0.171304
127	0x3d44f904	0.048089042
128	0x3bb97fc5	0.0056609833
129	0x3e08eb10	0.13370919
130	0x3ce2a52d	0.027666653
131	0x3d6c8da8	0.05775228
132	0x3dd77940	0.105211735
133	0xbe482a27	-0.1954733
134	0xbd5b956a	-0.05360929
135	0x3e395433	0.18098526
136	0x3e242fdd	0.16033883
137	0x3df2d85f	0.11857676
138	0x3e34a188	0.17639744
139	0xbe860355	-0.26174417
140	0xbe3d6590	-0.18495774
141	0xbd73e644	-0.05954577
142	0x3d562b4d	0.05228739
143	0xbc6f5ae2	-0.0146090705
144	0x3d98625d	0.07440636
145	0x3e056e50	0.13030362
146	0xbe21ed1b	-0.15813105
147	0x3e27193e	0.16318223
148	0x3da3fc7d	0.08007143
149	0x3e09e1f9	0.13465108
150	0xbd0fd7c8	-0.035117894
151	0xbd061a95	-0.032740194
152	0xbe67c68e	-0.22634336
153	0x3e0299f0	0.12754035
154	0x3d989b5b	0.07451507
155	0x3c18a358	0.009316288
156	0x3e06e598	0.1317352
157	0x3d9ad083	0.07559302
158	0x3da20752	0.079115525
159	0x3c48a838	0.012247138
160	0x3d7aa2fa	0.061190583
161	0x3e1f34af	0.15547441
162	0x3df5d4bb	0.12003466
163	0x3e0c1891	0.13681246
164	0xbea0eaee	-0.31429237
165	0xbe4eae4f	-0.20183681
166	0xbea36abb	-0.31917366
167	0x3d49c169	0.049256716
168	0x3e3908a2	0.180697
169	0x3c2a3914	0.010389585
170	0xbe84dd46	-0.25950068
171	0x3e2eed2f	0.17082666
172	0x3d7d18ea	0.061791338
173	0xbe5d6c92	-0.21623448
174	0x3e000db6	0.1250523
175	0xbd898ce0	-0.06716323
176	0x3dc32650	0.09528792
177	0xbd9d5794	-0.0768272
178	0xbc955f63	-0.01823396
179	0x3dc1cfcd	0.09463463
180	0xbe0ff0b5	-0.14056666
181	0x3e01266b	0.12612312
182	0xbe9e9b7c	-0.30978
183	0x3ce832cd	0.028344536
184	0x3d0d9e5e	0.03457486
185	0x3db3aa9b	0.08772775
186	0x3c8132ea	0.015771348
187	0x3d5edb3f	0.054408308
188	0x3d5b74d8	0.053578228
189	0x3d7bc420	0.061466336
190	0xbe64ee08	-0.22356427
191	0x3ddba9cb	0.10725745
192	0x3e36058b	0.17775552
193	0xbdc53cfd	-0.09630773
194	0x3dd4d9a1	0.10393072
195	0x3ccb80fe	0.024841782
196	0xbef8806b	-0.48535475
197	0x3e88b1c2	0.26698118
198	0xbea87e97	-0.3290908
199	0x3e2d0bef	0.16899084
200	0xbe984733	-0.2974182
201	0xbea33446	-0.3187582
202	0x3e82047e	0.25394052
203	0xbebc24c9	-0.36746815
204	0xbe8b5a5a	-0.2721737
205	0xbecf14b0	-0.4044547
206	0x3d853d42	0.065058246
207	0x3e1fd802	0.15609744
208	0x3d8799b3	0.06621113
209	0x3dc20377	0.09473317
210	0x3d632fc4	0.055465475
211	0xbe6c9018	-0.23101842
212	0x3d5ef492	0.05443246
213	0x3e551da6	0.20812091
214	0xbe1bca0e	-0.15213796
215	0xbeab9af5	-0.3351666
216	0x3e619d5e	0.22032687
217	0xbcda2c04	-0.026632316
218	0x3e22d6ac	0.15902203
219	0x3db15b36	0.08659975
220	0x3e785e7c	0.24254793
221	0xbd82e1fa	-0.06390758
222	0xbedbccc1	-0.42929652
223	0x3cb24c76	0.021764975
224	0xbe7e3f28	-0.2482878
225	0xbea1b6e7	-0.31584856
226	0xbe723e2b	-0.23656528
227	0x3e71e93c	0.23624128
228	0xbdc7372f	-0.09727322
229	0xbe17b43d	-0.14814849
230	0xbd561e97	-0.052275266
231	0xbe72063d	-0.23635192
232	0x3d1b3717	0.037894335
233	0xbd672363	-0.05643023
234	0xbd782d17	-0.060589876
235	0xbdb57111	-0.08859456
236	0xbebeb17e	-0.3724479
237	0x3e25191e	0.16122863
238	0xbef37241	-0.47548106
239	0x3ddf5e99	0.10906715
240	0xbed91e9b	-0.42406163
241	0x3e01c196	0.12671503
242	0x3e39098f	0.18070053
243	0xbea668ea	-0.32501918
244	0x3dea398a	0.11436756
245	0xbe325d16	-0.17418322
246	0x3e0d4879	0.13797177
247	0xbecf0fe9	-0.40441826
248	0x3e30104f	0.17193721
249	0x3ddbd428	0.10733825
250	0x3e2e4561	0.17018653
251	0x3df5f858	0.120102584
252	0xbe994bf9	-0.29940775
253	0xbea2ace6	-0.31772536
254	0xbeadc33d	-0.33938017
255	0x3e315a20	0.17319536

network.6.bias f4 [7]
0	0x3dc82d26	0.097742364
1	0x3b09540c	0.0020954637
2	0xbdcde61f	-0.10053658
3	0x3d7e27eb	0.062049787
4	0xbdb14c33	-0.08657112
5	0x3e2f4223	0.17115073
6	0x3d33e579	0.043920014
